ys/week_02/model.pt (torch, 2005 bytes, 2 tensors)

linear.weight f4 [5, 5]
000000 75 77 1b 40 2f 78 99 bf 6e 9a af bf 20 e7 b6 bf
       2.429166 -1.1989802 -1.3719003 -1.4289284
000010 d9 dd 80 bf a0 0b b5 bf 40 a6 13 40 b7 00 9a bf
       -1.0067703 -1.4144173 2.307022 -1.2031468
000020 a2 e4 ae bf a1 b1 98 bf 13 5c bc bf c8 9b 99 bf
       -1.3663523 -1.1929208 -1.4715599 -1.2000666
000030 d1 88 2a 40 98 e6 a5 bf 68 e5 9b bf ba f4 a8 bf
       2.6646006 -1.2960997 -1.2179384 -1.3199685
000040 f4 ad 64 bf c5 2a 93 bf 29 8e 0b 40 46 f6 9c bf
       -0.8932793 -1.1497427 2.1805518 -1.2262657
000050 b5 63 97 bf 90 08 a1 bf 38 ab a7 bf 65 47 ad bf
       -1.1827303 -1.2580738 -1.3099127 -1.3537413
000060 4d 66 3e 40
       2.974994

linear.bias f4 [5]
000000 38 d3 35 3e c0 4b ce 3e 4e 81 e8 3d 59 7b 91 3d
       0.17756355 0.40292168 0.11352788 0.07103605
000010 7e dc dc bd
       -0.10784243
