谢鸿志/week02/model.bin (torch, 2005 bytes, 2 tensors)

linear.weight f4 [5, 5]
28.878738 -10.28968 -10.8114 -10.683248 -11.295738 -11.0139265 30.567684 -11.387297
-10.564845 -11.530864 -10.996133 -10.751084 29.708685 -10.604866 -11.096878 -10.710126
-10.12589 -11.246662 29.288303 -11.193398 -11.393574 -10.219777 -10.9654045 -10.805541
29.397161
00000000: a807 e741 87a2 24c1 7ffb 2cc1 95ee 2ac1
00000010: 58bb 34c1 0b39 30c1 9e8a f441 5e32 36c1
00000020: 9b09 29c1 6b7e 38c1 29f0 2fc1 7104 2cc1
00000030: 63ab ed41 88ad 29c1 d08c 31c1 ad5c 2bc1
00000040: a503 22c1 54f2 33c1 724e ea41 2918 33c1
00000050: 144c 36c1 3584 23c1 4c72 2fc1 7fe3 2cc1
00000060: 632d eb41

linear.bias f4 [5]
0.45714703 -0.24745598 -0.06300221 0.4869767 0.0027706544
00000000: 2d0f ea3e 1a65 7dbe 4d07 81bd 0355 f93e
00000010: de93 353b
