jinzhenxiao/week02/model.bin (torch, 1612 bytes, 2 tensors)

linear.weight f4 [5, 5]
000000 e5 4e 37 40 5c 04 af bf 37 2d a2 bf ba 80 b2 bf
       2.8641903 -1.3673205 -1.2670048 -1.3945534
000010 82 00 a0 bf 6f ea 8d bf 68 71 34 40 89 71 b9 bf
       -1.2500155 -1.1087168 2.8194218 -1.4487773
000020 fa 9f bf bf 4d ca 8f bf 01 c5 81 bf 6e f2 8c bf
       -1.4970696 -1.1233612 -1.0138246 -1.1011484
000030 5d e4 1f 40 be f3 a2 bf 77 85 84 bf 93 98 88 bf
       2.4983132 -1.2730634 -1.035323 -1.0671562
000040 2f 76 a4 bf aa a2 a6 bf b0 98 2c 40 2a ee a6 bf
       -1.2848567 -1.3018391 2.6968193 -1.3041432
000050 b6 f1 8f bf 74 35 b7 bf 05 76 af bf 62 cf 9e bf
       -1.1245639 -1.4313188 -1.3707892 -1.2407038
000060 2a 3a 29 40
       2.644175

linear.bias f4 [5]
000000 e2 b6 06 3e 10 ce fb 3d 57 d8 73 3c 81 4a 87 3d
       0.13155702 0.12295163 0.014883122 0.06606007
000010 2c d1 4d 3e
       0.20099324
