廖文波/week02/model.bin (torch, 1624 bytes, 2 tensors)

linear.weight f4 [5, 5]
5.024352 -2.0402186 -1.8833321 -2.370522 -2.3941061 -2.280515 5.106981 -2.0629725
-2.3072777 -2.4167187 -2.1658635 -2.1196256 5.4419656 -2.1828427 -2.238516 -2.3332498
-2.0396984 -2.043648 4.904839 -2.3679743 -2.244213 -2.056772 -1.8573027 -2.2832832
5.1437593
00000000: 7ec7 a040 f192 02c0 0711 f1bf a2b6 17c0
00000010: 0939 19c0 f5f3 11c0 636c a340 be07 04c0
00000020: 70aa 13c0 85ab 1ac0 829d 0ac0 f2a7 07c0
00000030: 9524 ae40 b2b3 0bc0 d943 0fc0 f753 15c0
00000040: 6b8a 02c0 21cb 02c0 71f4 9c40 e48c 17c0
00000050: 30a1 0fc0 27a2 03c0 18bc edbf 5021 12c0
00000060: ad99 a440

linear.bias f4 [5]
0.06862645 0.17135015 -0.24960016 0.10319785 -0.2386484
00000000: 068c 8c3d 6a76 2f3e 2f97 7fbe 6559 d33d
00000010: 3f60 74be
