G_HuaLei_6924/week2/week2_weight_path.pth (torch, 2101 bytes, 2 tensors)

linear.weight f4 [5, 5]
000000 2b 7a d7 40 cf 6c 21 c0 08 d8 3a c0 ba ac 25 c0
       6.733663 -2.5222661 -2.9194355 -2.5886674
000010 14 12 31 c0 94 21 32 c0 9e 36 e4 40 bf 3b 3d c0
       -2.7667284 -2.7832994 7.131667 -2.9567716
000020 bd ce 2d c0 dd e5 37 c0 bc f2 38 c0 41 33 2a c0
       -2.7157433 -2.8734047 -2.8898153 -2.6593783
000030 15 99 da 40 d7 70 2a c0 c0 7b 2d c0 7f ab 31 c0
       6.831187 -2.6631372 -2.710678 -2.7760923
000040 d3 b6 24 c0 c1 b2 3a c0 d2 e2 db 40 bc 1d 36 c0
       -2.5736587 -2.9171603 6.871438 -2.8455648
000050 bc 9e 37 c0 a7 d5 1f c0 a8 68 39 c0 47 58 30 c0
       -2.8690634 -2.4974153 -2.8970127 -2.755388
000060 af f1 db 40
       6.8732524

linear.bias f4 [5]
000000 94 fa fd 3d c5 e1 c2 3d 4f 59 fc 3d 87 e9 3b 3e
       0.124013096 0.09515718 0.12321722 0.18350802
000010 fb be f7 3d
       0.120969735
