yanshun/week02/model99.bin (torch, 2240 bytes, 4 tensors)

linear1.weight f4 [5, 5]
0	0xc0369337	-2.8527353
1	0x41369461	11.411225
2	0xc02ca129	-2.6973364
3	0xc0294ae8	-2.645197
4	0xc03a8718	-2.9144955
5	0x4138abbf	11.54193
6	0xc03c4b29	-2.9420874
7	0xc02cebf9	-2.7019026
8	0xc02dd60e	-2.7161899
9	0xc03619bc	-2.8453207
10	0xc03dcaee	-2.9655108
11	0xc0485f90	-3.1308327
12	0xc0321c33	-2.7829711
13	0xc031359b	-2.7688968
14	0x413fd040	11.988342
15	0xc03fc358	-2.9962978
16	0xc03af139	-2.920973
17	0x413c2e89	11.761361
18	0xc02c0daa	-2.688334
19	0xc039507a	-2.895537
20	0xc0362b1c	-2.8463812
21	0xc03f06a6	-2.9847808
22	0xc02e4398	-2.7228756
23	0x413b7e6a	11.718363
24	0xc035dcd1	-2.8416026

linear1.bias f4 [5]
0	0xc04ac909	-3.1685202
1	0xc053478d	-3.301242
2	0xc054c44c	-3.324481
3	0xc04d375d	-3.206504
4	0xc04d0743	-3.2035682

linear2.weight f4 [5, 5]
0	0xc2027eb0	-32.62372
1	0x42acf099	86.46992
2	0xc1ea91b1	-29.321138
3	0xc1f6a3fc	-30.83007
4	0xc1ee5321	-29.79059
5	0x42afb7e7	87.859184
6	0xc202c188	-32.688995
7	0xc1e8232c	-29.017174
8	0xc202ffe1	-32.74988
9	0xc200f19f	-32.23596
10	0xc20383a6	-32.878563
11	0xc1f6c951	-30.848299
12	0xc20301bd	-32.751698
13	0x42b176f4	88.73233
14	0xc1f719e4	-30.887642
15	0xc1fbfdaa	-31.49886
16	0xc1fbdd74	-31.483131
17	0xc1fd3e20	-31.655334
18	0xc205ec4c	-33.48076
19	0x42b29ff8	89.31244
20	0xc1eb7bc4	-29.435432
21	0xc1f8cb25	-31.099192
22	0x42a9ef82	84.96779
23	0xc2062b64	-33.542374
24	0xc1f4b654	-30.589027

linear2.bias f4 [5]
0	0xbce44439	-0.027864562
1	0xbb8366b9	-0.004010048
2	0x3d47b850	0.04875976
3	0x3e27c82c	0.16384953
4	0x3f0a1d2d	0.5395077
