yanshun/week02/model.bin (torch, 2240 bytes, 4 tensors)

linear1.weight f4 [5, 5]
-2.8799136 11.501792 -2.7153342 -2.6806936 -2.9423015 -2.8843265 -3.0355062 -2.74525
11.848068 -2.8743787 11.656227 -2.9787698 -2.7227802 -2.751794 -2.8667786 -3.00623
-3.1817877 -2.8118138 -2.816993 12.144598 -3.0317934 -2.9616957 11.893672 -2.7276077
-2.925187
00000000: 8150 38c0 5707 3841 09c8 2dc0 7c90 2bc0
00000010: ab4e 3cc0 ce98 38c0 bc45 42c0 2db2 2fc0
00000020: b091 3d41 d2f5 37c0 e87f 3a41 2aa4 3ec0
00000030: 0842 2ec0 651d 30c0 4d79 37c0 1366 40c0
00000040: 69a2 4bc0 c2f4 33c0 9d49 34c0 4650 4241
00000050: e708 42c0 6c8c 3dc0 7b4c 3e41 2091 2ec0
00000060: 4436 3bc0

linear1.bias f4 [5]
-3.162754 -3.211017 -3.3117847 -3.3399215 -3.2123191
00000000: 906a 4ac0 4d81 4dc0 48f4 53c0 46c1 55c0
00000010: a396 4dc0

linear2.weight f4 [5, 5]
-30.166674 -27.6593 79.29694 -27.21427 -28.335234 80.033516 -29.952848 -29.569422
-27.012596 -30.256948 -30.144865 -28.321156 -27.70828 -30.176037 81.0823 -29.294086
80.96462 -28.681362 -29.595364 -31.199738 -26.599655 -27.678646 -27.430368 77.523285
-30.34811
00000000: 5955 f1c1 3f46 ddc1 0998 9e42 d3b6 d9c1
00000010: 8fae e2c1 2911 a042 6f9f efc1 2d8e ecc1
00000020: cc19 d8c1 3b0e f2c1 af28 f1c1 ba91 e2c1
00000030: 8faa ddc1 8668 f1c1 232a a242 4a5a eac1
00000040: e3ed a142 6e73 e5c1 4ec3 ecc1 1099 f9c1
00000050: 18cc d4c1 de6d ddc1 6571 dbc1 ec0b 9b42
00000060: eec8 f2c1

linear2.bias f4 [5]
-0.038429506 0.006996772 -0.18816145 0.38211283 -0.064458884
00000000: 4268 1dbd 2d45 e53b 65ad 40be 4ba4 c33e
00000010: 0503 84bd
